mnist/mnist_classifier.pt (torch_old, 218421 bytes, 17 tensors)

network.0.weight f4 [8, 1, 4, 4]
0	0x3da87672	0.08225717
1	0xbd3c35c3	-0.04594971
2	0x3be1e1ce	0.006893373
3	0x3ea07594	0.31339705
4	0xbe7e0314	-0.24805862
5	0x3d4704e2	0.04858864
6	0xbd78ee31	-0.060774032
7	0x3e4d1fdf	0.20031689
8	0xbe270379	-0.16309918
9	0xbe6273dd	-0.22114511
10	0xbd36ce71	-0.04463047
11	0x3d905844	0.07048085
12	0xbbc07850	-0.0058737174
13	0xbe8137f9	-0.25238016
14	0xbe53e3d9	-0.20692386
15	0xbd88fa11	-0.066883214
16	0xbc3aa958	-0.011392914
17	0xbe010809	-0.12600721
18	0x3e12991d	0.1431622
19	0x3d5d28a3	0.053993832
20	0xbe2349e5	-0.15946157
21	0xbe424ddd	-0.18975015
22	0x3c056566	0.008141851
23	0x3b9b2f5e	0.004735871
24	0xbe1b9191	-0.15192248
25	0xbd15ed06	-0.036602996
26	0x3e30cd18	0.17265737
27	0x3e317c5c	0.17332596
28	0xbec329a8	-0.3811772
29	0x3d31d8e7	0.043419745
30	0x3d98d245	0.07461981
31	0x3e3f45e5	0.18679006
32	0x3df9131b	0.12161847
33	0xbe8340da	-0.25635415
34	0xbec22715	-0.37920442
35	0xbe4243ab	-0.18971126
36	0x3e483959	0.19553126
37	0x3d3b084e	0.045662217
38	0x3d237ca1	0.039913777
39	0xbe819381	-0.2530785
40	0x3e91a775	0.28448072
41	0x3d9b0f70	0.07571304
42	0x3e5908ca	0.21194759
43	0x3ce128cd	0.027485276
44	0xbdefb82e	-0.11705051
45	0x3e3a5339	0.1819581
46	0xbd38c41f	-0.04510891
47	0x3d8d4a46	0.06898932
48	0xbd1ee9aa	-0.03879706
49	0xbe405791	-0.18783404
50	0xbea99809	-0.33123806
51	0xbdc7f55d	-0.09763596
52	0x3c190272	0.009338962
53	0xbdd6652a	-0.10468514
54	0x3e0150d6	0.12628493
55	0x3e4bc4f0	0.19899344
56	0xbcecf88d	-0.028927112
57	0xbdbf0d5a	-0.093287185
58	0x3dbcc022	0.09216334
59	0x3e179fbb	0.14807026
60	0xbcfd72eb	-0.030938586
61	0x3e3f9edf	0.18712948
62	0x3e1010d0	0.14068913
63	0x3e30f3a5	0.17280443
64	0xbdabe11a	-0.08392544
65	0xbd89dc10	-0.06731427
66	0xbde679c1	-0.112536915
67	0xbd8a0272	-0.06738748
68	0xbea4e712	-0.32207543
69	0xbe52a45e	-0.20570514
70	0x3cabfef5	0.020995596
71	0xbddcc2a0	-0.10779309
72	0x3e2abfad	0.16674681
73	0x3e035e23	0.12828879
74	0x3e08636b	0.13319175
75	0x3dca58cc	0.09880218
76	0x3e65bf0b	0.22436158
77	0x3e7a7e30	0.24462199
78	0xbe152192	-0.14563587
79	0x3dc84ec7	0.097806506
80	0xbe9a5ba5	-0.30148044
81	0xbe90921a	-0.28236467
82	0xbc1ef462	-0.00970182
83	0x3d9f7c66	0.07787399
84	0x3e291643	0.16512398
85	0xbde7c82b	-0.11317476
86	0xbefb2f75	-0.49059644
87	0x3d384e31	0.044996444
88	0x3d4eebca	0.050517835
89	0x3e20625b	0.1566252
90	0xbd94ddf2	-0.07268895
91	0xbea2e448	-0.3181479
92	0x3e28d69d	0.16488118
93	0x3e566d59	0.2094015
94	0xbd845972	-0.06462373
95	0xbd244822	-0.040107854
96	0x3d5c52c2	0.05378986
97	0x3d3d3ae6	0.046198748
98	0xbda8f7e3	-0.08250406
99	0xbd38f57d	-0.04515599
100	0x3e4ebbed	0.20188875
101	0xbd6ffd42	-0.058591135
102	0x3dc09998	0.09404296
103	0x3cdc150e	0.026865508
104	0xbe842284	-0.25807583
105	0xbe18e0eb	-0.1492955
106	0x3e300262	0.17188409
107	0xbc91ad81	-0.017782928
108	0x3e02265e	0.12709948
109	0xbcc7019d	-0.024292761
110	0x3d127fef	0.03576654
111	0x3da962eb	0.0827082
112	0x3ea19665	0.31560054
113	0xbc4e50dd	-0.0125925215
114	0x3e5d2cdd	0.21599145
115	0x3e93203f	0.2873554
116	0x3e636163	0.22205119
117	0x3e2cd4f1	0.16878106
118	0xbde3ed3c	-0.11129233
119	0xbe493515	-0.19649155
120	0xbdfdfd6a	-0.124018505
121	0xbe0b3d03	-0.13597493
122	0x3dee2c24	0.11629513
123	0xbeafda9d	-0.34346476
124	0x3caae65c	0.020861797
125	0xbea437cb	-0.32073817
126	0xbee3372f	-0.4437804
127	0xbdd7c256	-0.105351135

network.2.weight f4 [16, 8, 4, 4]
0	0x3dab2a28	0.0835765
1	0x3d9cae93	0.07650485
2	0x3daf8a62	0.08571316
3	0x3cadd0f6	0.021217804
4	0x3e8a623a	0.27028066
5	0x3dfcfd5c	0.12353012
6	0x3e86f129	0.26355866
7	0x3e60e544	0.21962458
8	0x3e021998	0.12705076
9	0x3d8d54f0	0.06900966
10	0x3d3f2598	0.04666671
11	0x3e15acb3	0.14616661
12	0xbdad3ead	-0.0845922
13	0x3d64ae6c	0.055830404
14	0xbe0d6ba0	-0.13810587
15	0xbe02db89	-0.12779059
16	0xbd1d3e03	-0.038389217
17	0xbdb95031	-0.090484984
18	0x3e09cb20	0.13456392
19	0x3df5e9fb	0.12007519
20	0x3dd3069b	0.10303994
21	0xbd1b7827	-0.037956383
22	0x3d31f80d	0.04344945
23	0x3dfbbfa1	0.1229241
24	0x3e02d31e	0.12775847
25	0x3c828214	0.015931167
26	0xbe10dc69	-0.1414658
27	0xbe5149eb	-0.20438354
28	0xbd1c5c44	-0.03817393
29	0xbceaa02d	-0.02864083
30	0x3d94a844	0.072586566
31	0xbdcfe18a	-0.1015044
32	0x3de5506e	0.11196981
33	0x3d5a29bb	0.053262454
34	0xbcb19440	-0.021677136
35	0x3d928c1b	0.07155629
36	0x3b6cb4c3	0.0036118485
37	0x3e031e74	0.12804586
38	0xbd8fe2b3	-0.07025661
39	0xbc9aeb34	-0.018910982
40	0xbdc0c6dc	-0.094129294
41	0x3dcd2585	0.10016922
42	0x3dd112c5	0.10208658
43	0x3e2096c9	0.1568252
44	0xbd8a3cac	-0.067498535
45	0x3c924c8a	0.017858762
46	0x3d71bf33	0.059020232
47	0x3e3f78ff	0.186985
48	0xbc7d0eeb	-0.015445451
49	0xbd78ed78	-0.060773343
50	0x3c7621bd	0.015022692
51	0x3db0ac45	0.08626608
52	0xbd8caf2e	-0.068693504
53	0xbddea9cf	-0.10872232
54	0xbdfd956b	-0.12382015
55	0x3c1ac4d9	0.009446346
56	0xbda971a8	-0.08273631
57	0x3d8edb36	0.06975405
58	0xbdfdd59d	-0.12394259
59	0xbe31b810	-0.1735537
60	0xbd63c654	-0.055609062
61	0xbd21474a	-0.039374627
62	0x3d211c84	0.039333835
63	0x3be18680	0.0068824887
64	0xbcbe6c6d	-0.02324506
65	0x3d95291a	0.0728323
66	0x3d3dbc8b	0.046322387
67	0xbd313eda	-0.04327283
68	0xbdba1764	-0.09086493
69	0x3cbd44a8	0.023104027
70	0xbcbd4902	-0.023106102
71	0xbe4476d2	-0.19185951
72	0x3d5b98bf	0.053612467
73	0xbd66bde9	-0.056333456
74	0x3dbf8e68	0.09353334
75	0x3ca31b30	0.019910425
76	0x3db07ab1	0.086171515
77	0xbd42085e	-0.04737126
78	0xbd73b4af	-0.059498485
79	0xbd87accc	-0.06624755
80	0x3dbbfd3b	0.09179159
81	0x3e3d9de6	0.18517265
82	0xbca3a975	-0.019978264
83	0xbb9cfd71	-0.0047909548
84	0xbc760f87	-0.01501835
85	0x3e499c15	0.19688447
86	0x3e09b6df	0.13448666
87	0xbd017fea	-0.03161613
88	0x3e041339	0.12897958
89	0xbd49cb66	-0.04926624
90	0x3ddacd20	0.10683656
91	0x3e845dde	0.25852865
92	0xbdba59c3	-0.09099152
93	0xbcc967e9	-0.024585681
94	0x3c1f178e	0.009710206
95	0x3da192b3	0.07889309
96	0xbb9c142b	-0.0047631464
97	0xbe2b2a3d	-0.16715331
98	0x3d802b89	0.06258304
99	0x3de4a27d	0.11163805
100	0x3dd7015f	0.104983084
101	0xbcd589a3	-0.026066607
102	0xbcea21b1	-0.028580518
103	0xbcb7f813	-0.022457158
104	0x3d9f1a58	0.077686965
105	0x3d651291	0.05592591
106	0xbd192c43	-0.037395727
107	0xbda8ff64	-0.08251837
108	0xbd993260	-0.074803114
109	0x3d1244a6	0.03571
110	0x3d9aa1f9	0.07550425
111	0xbd88b934	-0.0667595
112	0xbd4e90dd	-0.05043112
113	0xbd2d0aea	-0.042246737
114	0xbd229e61	-0.039701823
115	0xbcb810b5	-0.022468904
116	0xbd8c2e1e	-0.06844734
117	0xbd3b0385	-0.045657653
118	0xbe315264	-0.17316586
119	0xbdb0f646	-0.08640723
120	0xbd6e6907	-0.05820563
121	0x3e07199b	0.13193361
122	0x3c8d4ce0	0.01724857
123	0xbd0a826c	-0.033815786
124	0x3e0d52e4	0.13801152
125	0x3c81236f	0.015763966
126	0xbe048303	-0.12940602
127	0xbe24fbfb	-0.16111748
128	0x3decf34e	0.11569844
129	0xbbb5a6f2	-0.005543583
130	0xbdfc24e9	-0.123117276
131	0xbe339bd6	-0.17539915
132	0x3e35dc55	0.17759831
133	0x3e56be3b	0.20971005
134	0x3d38893e	0.04505276
135	0x3e1f53c4	0.15559298
136	0x3dcf5ef0	0.1012553
137	0x3dd8c51a	0.10584469
138	0x3d05b24a	0.032640733
139	0xbdbdfc57	-0.09276646
140	0x3d7404be	0.059574835
141	0xbe7f7ce1	-0.24949981
142	0xbe1d613b	-0.15369122
143	0x3cb09df0	0.021559685
144	0x3cbd2e38	0.023093328
145	0x3d5c888b	0.053841155
146	0x3bcb077f	0.006195962
147	0xbda5cbcb	-0.08095511
148	0xbe086e10	-0.13323236
149	0xbd881505	-0.06644634
150	0xbddd62de	-0.10809873
151	0xbe1b494b	-0.15164678
152	0xbd89d347	-0.06729751
153	0xbda441bd	-0.08020351
154	0x3c1a1173	0.009403574
155	0x3c0ceef4	0.008601893
156	0x3d780c6d	0.060558725
157	0xbd1ac1ee	-0.037782602
158	0x3c21003b	0.009826715
159	0x3de19c74	0.11016169
160	0xbae10fcc	-0.0017170846
161	0x3de939c6	0.113879725
162	0xbad8600b	-0.0016508115
163	0x3cd24fa2	0.025672738
164	0x3d078aec	0.03309147
165	0x3e115c37	0.14195333
166	0x3d377e99	0.044798467
167	0xbcead3c9	-0.02866544
168	0xbd04f822	-0.0324632
169	0xbd5f1e5b	-0.05447231
170	0xbe525334	-0.20539552
171	0xbe266a24	-0.16251427
172	0xbd83bb3c	-0.064321965
173	0x3c06ddab	0.008231561
174	0xbe587793	-0.21139364
175	0xbde1bfc2	-0.11022903
176	0xbcd4a830	-0.025959104
177	0xbc839937	-0.01606427
178	0x3d3c3ca1	0.045956258
179	0x3e1b58b5	0.15170558
180	0x3d31a6c7	0.043371942
181	0x3d288a92	0.041147776
182	0xba7df30e	-0.0009687402
183	0xbdc78195	-0.09741513
184	0xbe2c9f05	-0.16857536
185	0xbe09d020	-0.134583
186	0xbca0a300	-0.019608974
187	0xbd8be966	-0.068316266
188	0xbd8f7e73	-0.0700654
189	0x3d8a7bfa	0.06761928
190	0x3e004a1f	0.12528275
191	0x3ce3b1dc	0.02779477
192	0x3de20ed9	0.11037988
193	0x3d9d4030	0.076782584
194	0x3e06b253	0.13153963
195	0x3e007bbf	0.12547205
196	0x3c7e90b9	0.015537434
197	0x3d8fd64e	0.07023297
198	0x3cf87f4e	0.030334141
199	0xbcecf693	-0.02892617
200	0xbdbae0ea	-0.0912493
201	0xbcfb81ce	-0.030701544
202	0x3e2ae1ab	0.16687648
203	0x3d797349	0.06090096
204	0xbce0b807	-0.027431501
205	0xba3b3bc7	-0.00071423914
206	0x3da351fa	0.0797462
207	0x3d2e5970	0.042565763
208	0xbd90bf32	-0.070677176
209	0xbd0300f5	-0.031983335
210	0x3bc1a1da	0.005909187
211	0x3dba3531	0.09092177
212	0xbd0b3a56	-0.03399118
213	0xbe10d346	-0.14143094
214	0xbc4d1d85	-0.012519245
215	0x3d235443	0.03987528
216	0x3d8b04f2	0.067880526
217	0x3e0c730e	0.13715765
218	0xbd481307	-0.04884627
219	0x3a4ce22b	0.0007815684
220	0x3c70ee12	0.014705198
221	0x3df1888a	0.11793621
222	0x3d5aedb3	0.053449344
223	0x3cd492e7	0.025948955
224	0x3c5aa69d	0.013345388
225	0x3d8d4f50	0.06899893
226	0x3e74c40f	0.23902915
227	0x3e01a4b0	0.1266048
228	0x3deea3ba	0.11652322
229	0x3dd97868	0.10618669
230	0x3db6a470	0.08918083
231	0x3d8756ba	0.06608339
232	0xbe21eaba	-0.15812197
233	0xbe52c71f	-0.20583771
234	0x3d5600ae	0.052246742
235	0xbd228cc8	-0.03968504
236	0xbd088e24	-0.03333868
237	0xbd2fe5a7	-0.042943623
238	0xbe03801a	-0.12841836
239	0xbd82bb0b	-0.06383332
240	0xbe0f9c72	-0.14024523
241	0xbe337e24	-0.17528588
242	0xbe8d14b3	-0.27554855
243	0xbd16833c	-0.03674625
244	0x3e0c08c2	0.13675216
245	0x3d426075	0.04745527
246	0x3d793037	0.060836997
247	0x3dc40794	0.09571758
248	0x3d2add88	0.041715175
249	0x3e17097d	0.14749713
250	0x3e304107	0.17212306
251	0x3d7d398d	0.061822463
252	0xbd06f4b2	-0.032948203
253	0xbd68c8b3	-0.056832027
254	0x3bcd34e6	0.0062624095
255	0x3d4ffd10	0.05077845

network.3.weight f4 [16]
0	0x3f813b76	1.0096271
1	0x3f99fc53	1.2030128
2	0x3f7dfbf4	0.99212575
3	0x3f84c729	1.0373279
4	0x3f77d2b0	0.9680586
5	0x3f72d259	0.94852215
6	0x3f7c61e7	0.9858689
7	0x3f8970a0	1.0737495
8	0x3f7aa85b	0.9791314
9	0x3f82d2b8	1.0220556
10	0x3f73dd9c	0.95260024
11	0x3f8de0ca	1.1084225
12	0x3f77c58e	0.9678582
13	0x3f854a71	1.0413343
14	0x3f788123	0.97072047
15	0x3f743b59	0.9540306

network.3.bias f4 [16]
0	0x3c88cc35	0.016698936
1	0x3d0d8eab	0.034559887
2	0xbd9be58b	-0.07612141
3	0xbd741e3b	-0.059599143
4	0x3e0f4c2b	0.139939
5	0xbd2206da	-0.039557315
6	0xbde58890	-0.11207688
7	0xbda1eecb	-0.07906874
8	0xbca3672a	-0.019946653
9	0x3d1f8de2	0.03895367
10	0xbb6d53cc	-0.0036213277
11	0xbd75da00	-0.060022354
12	0x3e33ebd8	0.17570436
13	0x3d547c2b	0.05187623
14	0xbccb02f0	-0.024781674
15	0xbdc66b7b	-0.09688469

network.3.running_mean f4 [16]
0	0xbbe7c477	-0.007072981
1	0xba74a33e	-0.00093321863
2	0x3bca96b3	0.0061825155
3	0xbc49831e	-0.012299327
4	0xbc11a36c	-0.0088890605
5	0xbba5e13a	-0.0050622495
6	0xbbd68185	-0.0065462017
7	0x3b1f6012	0.0024318737
8	0xbc53361a	-0.012891317
9	0xbc6b66a5	-0.014367734
10	0xbb5b2b2e	-0.0033442485
11	0xbacba3e0	-0.001553651
12	0x3bbbed60	0.0057350844
13	0xbc518dee	-0.012790186
14	0xbc4a7aad	-0.01235835
15	0xbb8291fe	-0.003984689

network.3.running_var f4 [16]
0	0x3bc2d605	0.0059459233
1	0x3c6c3302	0.014416458
2	0x3c357281	0.011074663
3	0x3c07cdf7	0.008288852
4	0x3c86eefd	0.01647138
5	0x3c55d01a	0.013050104
6	0x3c0013bd	0.007817206
7	0x3c36dd0a	0.011161098
8	0x3c730535	0.014832784
9	0x3c29dada	0.01036712
10	0x3c09d729	0.008413115
11	0x3c43f497	0.01196017
12	0x3cafa48c	0.021440767
13	0x3c35aba8	0.011088289
14	0x3c154016	0.009109518
15	0x3c2134e9	0.009839275

network.5.weight f4 [32, 16, 4, 4]
0	0xbd32da9b	-0.04366551
1	0x3df780af	0.12085091
2	0xbe22f984	-0.15915495
3	0xbdfb0840	-0.12257433
4	0xbce00134	-0.027344324
5	0xbdded9a7	-0.10881358
6	0x3da8b314	0.082372814
7	0x3d0f591a	0.034997083
8	0x3b454f9d	0.0030107268
9	0xbc61463e	-0.013749657
10	0xbe013e9a	-0.12621537
11	0x3dbf1188	0.09329516
12	0xbcccd046	-0.025001656
13	0xbd1f84dc	-0.038945064
14	0x3d4728f6	0.048623048
15	0xbcb9a8a1	-0.022663416
16	0xbda03179	-0.07821936
17	0x3cb0f8b8	0.021602973
18	0xbccaaa4f	-0.024739413
19	0xbde0677c	-0.10957238
20	0xbbe1b236	-0.0068876995
21	0x3cdfdb16	0.027326148
22	0x3e1c4cb8	0.15263641
23	0xbd06d759	-0.032920215
24	0xbd99f633	-0.07517662
25	0xbc714cda	-0.0147277955
26	0x3d920d79	0.07131476
27	0x3dcff5d2	0.101543084
28	0x3e4cd88d	0.20004483
29	0xbdc3d3a3	-0.09561851
30	0xbcefe4dd	-0.029283935
31	0xbd51b6db	-0.051199775
32	0x3cedbeb6	0.029021602
33	0x3ce77100	0.028252125
34	0xbc81ade7	-0.015829993
35	0xba195142	-0.0005848595
36	0x3dda4122	0.10656954
37	0x3da10233	0.078617476
38	0xbc4b0f6c	-0.012393814
39	0xbe014075	-0.12622245
40	0xbd8edde7	-0.06975918
41	0x3d125f31	0.035735313
42	0xbd3ab1cc	-0.045579717
43	0x3d9c06c4	0.07618478
44	0xbd9ec08e	-0.07751571
45	0xbd52d8e7	-0.051476385
46	0x3c1a6720	0.009424001
47	0xbcaa5245	-0.020791182
48	0xbd087d21	-0.033322457
49	0xbd99b92b	-0.07506021
50	0xbd8a797a	-0.06761451
51	0x3c32030c	0.010864984
52	0xbd2952c2	-0.04133869
53	0xbae4af51	-0.0017447268
54	0x3d8a8235	0.06763116
55	0xbd41efe7	-0.04734793
56	0xbe26290e	-0.16226599
57	0x3df6eadc	0.120565146
58	0xbd1727d4	-0.036903217
59	0x3dbd900f	0.092559926
60	0x3d7b4993	0.061349463
61	0xbbf7fc4c	-0.007567918
62	0x3d9a7dd5	0.07543532
63	0xbc4a282d	-0.01233868
64	0x3d8e1160	0.06936908
65	0x3d3ab8cf	0.045586403
66	0xbdbcf233	-0.09225883
67	0x3ba200c5	0.0049439394
68	0xbe0d252c	-0.13783711
69	0xbdfcdf26	-0.1234725
70	0x3e5d4235	0.21607287
71	0x3dae2d5e	0.08504747
72	0xbdfae644	-0.12250951
73	0x3c70de55	0.014701446
74	0x3d15aa0a	0.036539115
75	0x3d952bb2	0.07283725
76	0x3daa1a76	0.08305828
77	0xbc77fd9f	-0.015136152
78	0xbb57d170	-0.003293123
79	0xbc969540	-0.018381715
80	0xbca715b4	-0.020396091
81	0xbdb6829a	-0.08911629
82	0x3d0d17d4	0.034446552
83	0xbe0dccf8	-0.1384772
84	0xbd97e129	-0.07415993
85	0xbe373af9	-0.1789359
86	0xbddd2171	-0.10797394
87	0xbb24e82b	-0.0025162797
88	0x3ce001e7	0.027344657
89	0x3e1cc441	0.1530924
90	0x3da40bfa	0.08010097
91	0x3caf949d	0.021433169
92	0x3da1fdfd	0.079097725
93	0xbc03bb12	-0.0080402065
94	0xbc81f16b	-0.015862187
95	0xbd96476c	-0.073378414
96	0xbd84191c	-0.06450102
97	0x3ab89cdd	0.0014084835
98	0xbd8c00cb	-0.06836089
99	0xbe573536	-0.21016392
100	0xbc50f2f4	-0.012753237
101	0x3e070772	0.13186434
102	0x3be269d3	0.006909588
103	0xbd81f343	-0.063452266
104	0xbdaf8c49	-0.08571679
105	0xbdcb7ca2	-0.09935881
106	0xbde63d5a	-0.11242171
107	0xbd2c2514	-0.042027548
108	0xbd2a45f3	-0.041570615
109	0x3d5b01ce	0.053468518
110	0xbd872b8d	-0.066001035
111	0x3d887907	0.06663709
112	0xbb632f12	-0.0034665507
113	0xbdb0cebe	-0.08633183
114	0xbcf583e0	-0.02997011
115	0x3de012d1	0.10941089
116	0xbbe8892a	-0.0070964294
117	0xbd297634	-0.041372493
118	0xbdc7a8ab	-0.09748968
119	0xbd8bb011	-0.068206914
120	0xbc9afb98	-0.018918797
121	0xbd18eaee	-0.03733342
122	0xbba7f8ed	-0.00512611
123	0xbc3ad4cf	-0.011403277
124	0x3d921aba	0.07134004
125	0xbdb664dd	-0.08905957
126	0x3e041f92	0.12902668
127	0xbe2438e5	-0.16037329
128	0xbd9e60d2	-0.07733311
129	0x3d2dfe5c	0.042478904
130	0xbcdddc17	-0.027082486
131	0xbc9d679a	-0.01921444
132	0xbdc9b638	-0.098492086
133	0xbe21a025	-0.15783747
134	0xbddf0f95	-0.10891644
135	0xbd521151	-0.051286045
136	0xbdcea776	-0.100905344
137	0xbd720627	-0.0590879
138	0x3dae6f9b	0.08517381
139	0xbaeab638	-0.0017907089
140	0xbd975652	-0.07389511
141	0x3daf7f7d	0.08569238
142	0x3dac5f5c	0.08416626
143	0x3dc5c7b2	0.096572295
144	0xbda91ea1	-0.08257795
145	0xbd1b103a	-0.03785727
146	0x3c98e79a	0.018665124
147	0x3dfbe6d6	0.12299888
148	0xbd3c5637	-0.04598066
149	0xbc10e469	-0.00884352
150	0xbcd0ca19	-0.025486993
151	0xbdcee798	-0.10102767
152	0x3d4c03ca	0.0498083
153	0xbd6c8fac	-0.057754204
154	0xbce5d5fa	-0.028056134
155	0xbd06fa92	-0.032953806
156	0x3cbb4ce6	0.022863816
157	0x3d0e4b4f	0.03473979
158	0x3c6bf383	0.014401319
159	0x3de69bec	0.112602085
160	0xbd92f557	-0.07175701
161	0xbe0e0dad	-0.13872404
162	0x3d9b6d06	0.07589154
163	0x3dc5cc3d	0.09658096
164	0xbd75ecec	-0.0600404
165	0xbd324e49	-0.04353169
166	0xbe36a7e9	-0.1783749
167	0xbd9d765d	-0.07688592
168	0x3e61672c	0.22012013
169	0xbd8c261e	-0.06843208
170	0x3d98772f	0.074446075
171	0x3d45a9dd	0.048257697
172	0x3d19ffb5	0.037597377
173	0xbc59a30a	-0.0132835
174	0xbe265b87	-0.16245852
175	0x3a55bfd7	0.00081538915
176	0xbc3f0d11	-0.01166083
177	0x3d9a0462	0.07520367
178	0x3e128539	0.14308633
179	0xbb35b81f	-0.0027728153
180	0x3d906cd3	0.070520066
181	0x3b2149df	0.002461068
182	0xbe0a8d32	-0.13530424
183	0xbdc7bb6c	-0.09752545
184	0x3dc58bc1	0.096457966
185	0xbcec5d72	-0.028853152
186	0x3d66a3fd	0.056308735
187	0x3d2ae1de	0.04171931
188	0xbd743381	-0.05961943
189	0x3d1cf1d1	0.03831655
190	0xbd3f5183	-0.046708595
191	0x3d0bb7ea	0.03411094
192	0x3ddbc492	0.10730852
193	0xbd8f096a	-0.069842175
194	0xbd8b8f36	-0.06814425
195	0xbbc60054	-0.0060425196
196	0x3da15aa2	0.07878615
197	0x3c20199b	0.00977173
198	0xbc94f272	-0.018182013
199	0x3c9fb068	0.019493297
200	0x3d354322	0.044253476
201	0xbcf48d18	-0.029852435
202	0x3c58634a	0.013207266
203	0x3d1029b0	0.035196006
204	0xbdfa0a81	-0.12209035
205	0xbd78e729	-0.060767327
206	0xbdf9c410	-0.12195599
207	0xbd5caf07	-0.053877857
208	0x3d9623ee	0.07331072
209	0xbcad79d7	-0.021176262
210	0xbd2a7d2e	-0.041623287
211	0xbd5bebb3	-0.053691577
212	0x3cbb22a8	0.022843674
213	0xbd68a2c1	-0.05679584
214	0x3d973403	0.07382967
215	0xbdacf047	-0.08444267
216	0xbda93d2f	-0.08263623
217	0xbdb0f47e	-0.08640383
218	0x3d823da0	0.0635941
219	0xbdeb32eb	-0.11484321
220	0x3c4e60f7	0.01259636
221	0xbb589862	-0.0033049812
222	0x3dae9c74	0.08525935
223	0xbdc34501	-0.09534646
224	0xbd5b1519	-0.053486917
225	0x3d8f9555	0.07010905
226	0x3db59365	0.08866004
227	0x3e0c934e	0.13728067
228	0x3e523c45	0.20530804
229	0x3db36ffc	0.08761594
230	0xbd868c58	-0.06569737
231	0xbc46a1f2	-0.012123572
232	0xbc1879e8	-0.009306408
233	0xbd69a8e7	-0.057045843
234	0x3de7aa78	0.11311811
235	0x3b88911a	0.004167688
236	0x3d282026	0.041046284
237	0x3d733c49	0.059383664
238	0x3d8fba51	0.07017959
239	0x3db8a042	0.09014942
240	0xbdeb3307	-0.11484342
241	0x3d6c1d4a	0.05764512
242	0xbded6f28	-0.11593467
243	0x3d9c9704	0.076459914
244	0xbd72529e	-0.05916082
245	0xbd0dab72	-0.03458733
246	0xbe3a7c04	-0.1821137
247	0x3d54ffe0	0.052001834
248	0xbe17ac00	-0.14811707
249	0xbdfd9057	-0.12381046
250	0x3da96dcf	0.082728975
251	0xbd95f1e3	-0.07321527
252	0xbcc69cb8	-0.024244651
253	0x3d1226ae	0.03568142
254	0x3bcd4cbc	0.006265251
255	0xbcefef38	-0.029288873

network.6.weight f4 [32]
0	0x3f757608	0.95883226
1	0x3f8bf576	1.0934284
2	0x3f86c423	1.0528606
3	0x3f90a479	1.1300193
4	0x3f84725c	1.03474
5	0x3f74b179	0.955833
6	0x3f866db0	1.0502224
7	0x3f937d50	1.1522617
8	0x3f8e1428	1.1099901
9	0x3f6e70c7	0.93140835
10	0x3f851133	1.0395874
11	0x3f80275e	1.0012014
12	0x3f866fdc	1.0502887
13	0x3f885691	1.0651418
14	0x3f7a70a0	0.978281
15	0x3f81a368	1.0127993
16	0x3f853d19	1.040927
17	0x3f95df94	1.1708856
18	0x3f8203c1	1.0157396
19	0x3f7a8b1b	0.9786851
20	0x3f8d64ff	1.1046447
21	0x3f803d26	1.0018661
22	0x3f8c6e56	1.0971172
23	0x3f82889a	1.0197937
24	0x3f836abb	1.0266947
25	0x3f8b38e8	1.0876741
26	0x3f82c41a	1.0216095
27	0x3f872e9d	1.05611
28	0x3f6744e7	0.9033951
29	0x3f9535c3	1.1657032
30	0x3f80de5d	1.006786
31	0x3f803ece	1.0019166

network.6.bias f4 [32]
0	0x3ceb510c	0.02872517
1	0x3b3b4021	0.002857216
2	0x3cb05763	0.021526044
3	0xbd19579d	-0.03743707
4	0x3d387e86	0.045042537
5	0xbdf87e9f	-0.12133526
6	0xbb6f0520	-0.003647156
7	0x37d6f2ea	2.5623904e-05
8	0xbcc56d10	-0.024099857
9	0xbd9b51c2	-0.075839534
10	0xba8cdfc5	-0.0010747841
11	0xbdde0b2a	-0.10841973
12	0xbdef39e0	-0.11680961
13	0xbd203bf6	-0.039119683
14	0xbd95434b	-0.07288226
15	0xbdca4743	-0.09876873
16	0xbd846f1f	-0.06466507
17	0xbd495fcc	-0.049163625
18	0xbcc4ab3c	-0.024007432
19	0xbde08bd1	-0.10964168
20	0x3caac425	0.020845482
21	0xbc126b0d	-0.008936656
22	0x3d0994b6	0.033589087
23	0xbdab094d	-0.08351383
24	0xbd130a66	-0.03589859
25	0xbdb506a4	-0.08839157
26	0xbda85b54	-0.082205445
27	0x3d93d806	0.072189376
28	0xbd9cca19	-0.076557346
29	0xbcee24ef	-0.029070346
30	0xbd66f17f	-0.056382652
31	0xbbd0e1cd	-0.006374574

network.6.running_mean f4 [32]
0	0xbe8e4b1e	-0.27791685
1	0xbe95b763	-0.29241475
2	0xbe11e361	-0.14246894
3	0xbe51e74f	-0.20498393
4	0xbe06b89f	-0.13156365
5	0xbe28c350	-0.16480756
6	0x3d3dde0e	0.046354346
7	0xbe003c3c	-0.12522978
8	0x3dfba81c	0.12287924
9	0xbd40215e	-0.04690682
10	0xbd86cc7a	-0.065819696
11	0xbd8170c3	-0.06320336
12	0x3e2f9aca	0.17148891
13	0xbdd4f35f	-0.10397982
14	0xbe240a89	-0.16019644
15	0x3c812676	0.01576541
16	0xbe20dad5	-0.15708478
17	0xbbddfd1a	-0.006774557
18	0x3dc969c0	0.09834623
19	0x3e1e9e32	0.15490034
20	0xbd15f141	-0.03660703
21	0xbe2611a2	-0.16217664
22	0xbdc782c7	-0.09741741
23	0x3dc3fcb4	0.09569684
24	0xbdcebfb4	-0.10095158
25	0xbcb41fe5	-0.021987865
26	0xbd7a4117	-0.06109723
27	0xbd72de10	-0.059293807
28	0xbd918b65	-0.071066655
29	0xbeaf1177	-0.34193012
30	0xbe27f025	-0.16400202
31	0xbe6ff797	-0.23434292

network.6.running_var f4 [32]
0	0x3fc9fe6b	1.5780767
1	0x3fc4d099	1.5376159
2	0x3f9bf36e	1.2183664
3	0x3fbf5bdf	1.4949912
4	0x400066a6	2.0062652
5	0x3fa17bef	1.2615947
6	0x3f8efb86	1.1170509
7	0x3fcf5420	1.6197548
8	0x3fd57fbe	1.6679609
9	0x3fba0891	1.4533864
10	0x3fbf0875	1.4924456
11	0x3fa16f0d	1.2612015
12	0x3fac74bb	1.3473123
13	0x3fa4fe84	1.2890172
14	0x3f858341	1.043068
15	0x3fab0419	1.3360626
16	0x3fcb3fac	1.5878806
17	0x3fc61960	1.5476494
18	0x3f9f117a	1.2427208
19	0x3f8d6479	1.1046287
20	0x3fc191df	1.5122641
21	0x400e9613	2.2279098
22	0x3f9f1c28	1.2430468
23	0x3fc46ca1	1.5345651
24	0x3f8d85f4	1.1056504
25	0x4001cc04	2.0280771
26	0x3fd60e08	1.6723032
27	0x3f8a98c0	1.0827866
28	0x3fa7088a	1.3049481
29	0x3ff340b6	1.9004123
30	0x3fd02033	1.6259826
31	0x3f9ca236	1.2237003

network.8.weight f4 [64, 32, 4, 4]
0	0xbc99d24c	-0.018777035
1	0x3c92905a	0.017891098
2	0xbd63ca07	-0.05561259
3	0xbb8c63b9	-0.004284349
4	0xbd9fadf3	-0.0779685
5	0x3db0c7f4	0.08631888
6	0x3d88e600	0.06684494
7	0x3d78f82b	0.060783546
8	0xbc76eddf	-0.015071361
9	0x3c91d1b6	0.017800193
10	0xbd500bbc	-0.05079244
11	0x3da39935	0.07988206
12	0xbc778d01	-0.015109302
13	0x3da5a47e	0.08088015
14	0xbce9b7c1	-0.028530004
15	0xbd0a9884	-0.033836856
16	0x3e2e98fb	0.17050545
17	0xbda3fcff	-0.080072396
18	0x3d01fff2	0.03173823
19	0xbc4b4c5f	-0.012408345
20	0x3c1ea4fe	0.009682892
21	0x3d34dfbc	0.044158682
22	0xbca0131c	-0.019540362
23	0xbdc5e274	-0.09662333
24	0x3d44ff99	0.04809532
25	0xbd8ae664	-0.06782225
26	0x3e04e54f	0.129781
27	0xbd7f81f5	-0.062379796
28	0x3deef4a9	0.11667759
29	0x3d90cd47	0.070704035
30	0x3bf04b0a	0.007333164
31	0x3ce71150	0.028206497
32	0x3d13a27a	0.03604362
33	0xbd61ca9a	-0.055124857
34	0xbd830a00	-0.06398392
35	0xbd2e6546	-0.04257705
36	0xbd58ff9b	-0.05297814
37	0x3db5b159	0.08871717
38	0xbc444ee5	-0.011981701
39	0xbdabb898	-0.08384818
40	0xbdd493a1	-0.103797205
41	0x3d5ffc0c	0.05468373
42	0x3dc5e8e5	0.09663562
43	0xbdbe5247	-0.09293037
44	0x3ad859a2	0.0016506205
45	0x3bbeb4ff	0.0058199163
46	0xbde0b7ed	-0.10972581
47	0x3b5e44ca	0.0033915513
48	0x3c481a2f	0.012213274
49	0x3e2ce1b5	0.16882975
50	0x3cea3e46	0.028594147
51	0xbdbae253	-0.09125199
52	0xbc7ad858	-0.015310369
53	0xbbf47bcf	-0.007461048
54	0x3c05be5d	0.008163062
55	0xbd8596e4	-0.06522921
56	0x3db6efe8	0.08932477
57	0x3bc3f7ca	0.0059804665
58	0x3e00563c	0.12532896
59	0x3be567a8	0.007000882
60	0x3b367e20	0.0027846172
61	0xbc47feb5	-0.012206723
62	0xbd2d709a	-0.042343713
63	0xbc2015b9	-0.009770804
64	0xbc32e88f	-0.010919704
65	0x3b3185bb	0.0027087766
66	0xbd2473bd	-0.04014944
67	0xbb1ee4fe	-0.0024245377
68	0x3d522233	0.051302146
69	0x3d5641ef	0.052308973
70	0x3c94dc39	0.018171417
71	0x3de0cf15	0.10976998
72	0xbd9934b6	-0.07480757
73	0xbc8a2f0f	-0.016868142
74	0xbda73f40	-0.08166361
75	0xbdebbb69	-0.11510355
76	0xbd2e9a1d	-0.042627443
77	0x3d3344aa	0.043766655
78	0x3df9df76	0.12200825
79	0x3d192559	0.037389133
80	0x3e22c124	0.1589399
81	0xbc870909	-0.0164838
82	0xbd316724	-0.043311253
83	0xbbf4b019	-0.0074672815
84	0x3d1debc2	0.038554914
85	0xbb27491c	-0.0025525754
86	0xbc2ecc70	-0.010668859
87	0x3cff867a	0.031192053
88	0x3e15477a	0.14578047
89	0xbc24b3b7	-0.010052613
90	0x3dcd4786	0.10023408
91	0x3d7a88b4	0.061165527
92	0x3dbd2f7b	0.09237572
93	0xbcd84a06	-0.026402485
94	0xbd321b45	-0.043483038
95	0xbd605c7c	-0.0547757
96	0xbdb11139	-0.08645863
97	0x3db037c1	0.08604384
98	0x3dfa2230	0.12213552
99	0x3dae8db2	0.0852312
100	0xbc5162fd	-0.012779948
101	0xbcf9e084	-0.030502565
102	0xbd4d1c34	-0.050075725
103	0x3c0d32c0	0.008618057
104	0xbd01fc80	-0.031734943
105	0xbba35c4a	-0.004985367
106	0x3d38d303	0.04512311
107	0xbd0cf358	-0.03441176
108	0xbccf004e	-0.0252687
109	0xbd859842	-0.065231815
110	0xbd92fbd6	-0.0717694
111	0xbd6bf74f	-0.0576089
112	0x3dc98f0c	0.09841737
113	0x3be40cdd	0.0069595412
114	0x3d804bc3	0.062644504
115	0x3d99ba74	0.07506266
116	0xbcb8abd5	-0.022542873
117	0xbbfcbaf1	-0.007712715
118	0xbd24a306	-0.040194534
119	0xbd42a19b	-0.0475174
120	0xbbf004e8	-0.0073248036
121	0xbc908528	-0.017641619
122	0x3dff0647	0.12452369
123	0x3dd6d9c9	0.10490758
124	0x3d219240	0.039446115
125	0x3da26cf3	0.07930937
126	0x3d7e09df	0.062021133
127	0xbd9ffcb0	-0.07811868
128	0xbc3f2b12	-0.011667984
129	0x3d83730d	0.064184286
130	0x3da355d4	0.07975355
131	0x3e241e2e	0.16027138
132	0xbd0b55de	-0.034017436
133	0x3c1d98ed	0.00961898
134	0xbd514cd0	-0.051098645
135	0xbd791361	-0.060809497
136	0xbccfc416	-0.025362056
137	0x3d71f8df	0.059075233
138	0xbc3a7542	-0.0113804955
139	0xbc918608	-0.017764106
140	0x3d3fd91e	0.04683792
141	0x3c8cc285	0.017182598
142	0x3d523a91	0.051325385
143	0x3c3cf639	0.011533313
144	0x3ca97e51	0.020690115
145	0x3d211f8d	0.03933673
146	0x3d5d6e4d	0.05406027
147	0xbcad465b	-0.021151712
148	0x3d144454	0.036197975
149	0xbd80dc7d	-0.06292055
150	0xbc6c2df3	-0.014415252
151	0x3c27e0aa	0.010246435
152	0x3d98e3e8	0.07465345
153	0xbbd76f17	-0.0065745222
154	0xbd5937e6	-0.053031825
155	0x3cc08564	0.023501106
156	0xbd268945	-0.040658254
157	0x3cf4b767	0.02987261
158	0x3cf0ea3a	0.029408563
159	0xbcdfc71f	-0.027316628
160	0x3ba296f4	0.0049618427
161	0xbc7f4ae1	-0.015581817
162	0xbd7ea8e0	-0.06217277
163	0x3dd220b2	0.102601424
164	0x3d7fa58d	0.06241374
165	0x3d673979	0.056451295
166	0xbd0e61c0	-0.03476119
167	0x3d263b11	0.040583674
168	0xbdacd471	-0.084389575
169	0x3cd11cbf	0.025526403
170	0x3d34717c	0.04405354
171	0xbb746e51	-0.00372972
172	0xbcf4992d	-0.029858196
173	0xbd61a602	-0.055089958
174	0xbb792dc3	-0.003802166
175	0xbc0df16d	-0.008663517
176	0xbd8de341	-0.06928111
177	0xbd9c084d	-0.07618771
178	0x3c94af76	0.018150073
179	0x3dce9ec7	0.10088878
180	0x3cfea166	0.03108282
181	0xbc42f292	-0.011898654
182	0x3cb0b893	0.021572387
183	0x3da0a089	0.0784312
184	0x3cbe4db2	0.023230407
185	0x3c83c212	0.01608375
186	0xbd2b34ab	-0.041798275
187	0x3d4b7218	0.049669355
188	0x3c5a7d94	0.013335604
189	0x3dc300f9	0.0952167
190	0x3dae2113	0.08502402
191	0xbd39c338	-0.04535219
192	0xbb910ab6	-0.0044263257
193	0x3db1f16d	0.086886264
194	0x3db81997	0.08989256
195	0x3c21bb9d	0.009871391
196	0x3c69c0ad	0.014267129
197	0xbd7e0d6f	-0.06202453
198	0xbd5d1e4f	-0.053983983
199	0x3dd9fd45	0.106440105
200	0xbcf82665	-0.030291745
201	0x3c886d72	0.01665375
202	0xbd106a5e	-0.03525769
203	0xbd2a29df	-0.041543838
204	0x3d74b139	0.059739325
205	0xbd1b7bd1	-0.037959877
206	0x3cad7cdd	0.021177704
207	0xbd40fc15	-0.047115404
208	0xbd6e34a9	-0.05815569
209	0x3bdd93bc	0.006761996
210	0x3da4691e	0.08027862
211	0xbc13715e	-0.008999197
212	0xbcdab8cf	-0.026699452
213	0xbdaf232e	-0.08551632
214	0xbcc439c6	-0.02395333
215	0x3d97f3d2	0.07419552
216	0xbd0f7bc0	-0.035030127
217	0x3dfb7b4f	0.122793786
218	0xbd0012da	-0.03126798
219	0xbda46fca	-0.080291346
220	0xbd242afe	-0.040080063
221	0xbd0f3a25	-0.03496756
222	0x3d621286	0.055193447
223	0xbdd147cf	-0.102187745
224	0x3d669ee4	0.056303874
225	0x3d8c62bc	0.068547696
226	0xbc12fb54	-0.008971054
227	0xbc95ac99	-0.018270778
228	0x3d3be7e1	0.045875434
229	0xbd5b940e	-0.053607993
230	0x3d727dc7	0.059201982
231	0xb8cf12da	-9.8740406e-05
232	0x3dd7f71c	0.10545179
233	0xbd689802	-0.05678559
234	0x3c8dc92a	0.017307837
235	0x3db0f9cb	0.08641394
236	0x3c4258a8	0.011861958
237	0x3b0ba810	0.002130989
238	0xbd365155	-0.044511158
239	0xbce81fea	-0.02833553
240	0x3cdb72dc	0.026788168
241	0x3d9490e2	0.07254197
242	0xbd5b0ada	-0.053477146
243	0x3ddeeeaf	0.10885369
244	0xbd8983b9	-0.06714577
245	0x3d9c3cad	0.076287605
246	0xbd238064	-0.039917365
247	0x3dbb8116	0.091554806
248	0x3d915da0	0.07097936
249	0x3d9c7b53	0.0764071
250	0x3901e085	0.00012386039
251	0xbda73761	-0.081648596
252	0x3cc9743a	0.024591554
253	0x3d37881d	0.044807542
254	0x3bbd7eec	0.0057829525
255	0x3d4b4097	0.049622145

network.9.weight f4 [64]
0	0x3f87919e	1.0591314
1	0x3f90199a	1.1257813
2	0x3f92a79a	1.1457398
3	0x3f94a747	1.1613549
4	0x3f83a0fa	1.0283501
5	0x3f87d7de	1.0612752
6	0x3f8626dc	1.0480609
7	0x3f72d4d4	0.94856
8	0x3f8d59c8	1.1043024
9	0x3f863e38	1.0487738
10	0x3f8f63c2	1.1202319
11	0x3f87aa7a	1.05989
12	0x3f964535	1.173987
13	0x3f79ec30	0.9762602
14	0x3f842b57	1.0325726
15	0x3f853199	1.0405761
16	0x3f8c89d2	1.097956
17	0x3f91d285	1.139237
18	0x3f98622f	1.1904963
19	0x3f8bdb28	1.0926256
20	0x3f848055	1.0351664
21	0x3f8ca898	1.0988951
22	0x3f8eba0b	1.1150526
23	0x3f890f52	1.07078
24	0x3f89538f	1.0728625
25	0x3f88d221	1.0689126
26	0x3f81f5c1	1.0153123
27	0x3f8fdad2	1.1238654
28	0x3f8c3648	1.0954065
29	0x3f8f22e2	1.118252
30	0x3f9af9f7	1.2107533
31	0x3f7c4b4d	0.985524
32	0x3f8e9273	1.1138443
33	0x3f914288	1.1348429
34	0x3f8aa090	1.083025
35	0x3f8729b1	1.0559598
36	0x3f7fc0da	0.99903643
37	0x3f8d7567	1.1051453
38	0x3f871d07	1.0555733
39	0x3f8837a9	1.0641986
40	0x3f9197b8	1.1374426
41	0x3f7e33ac	0.99297595
42	0x3f8e5bea	1.11218
43	0x3f887974	1.0662065
44	0x3f871344	1.0552754
45	0x3f832fcc	1.0248961
46	0x3f7de5ef	0.99178976
47	0x3f8105cb	1.0079893
48	0x3f826331	1.0186521
49	0x3f98faa1	1.1951486
50	0x3f8bef8e	1.0932481
51	0x3f97faa5	1.1873366
52	0x3f8ffb62	1.1248591
53	0x3f889f8e	1.0673692
54	0x3f7a4cea	0.9777361
55	0x3f8e0200	1.109436
56	0x3f8c159a	1.0944092
57	0x3f95b3c2	1.1695483
58	0x3f82cf0d	1.0219437
59	0x3f82f4bd	1.0230938
60	0x3f802233	1.0010437
61	0x3f90718e	1.1284654
62	0x3f938170	1.1523876
63	0x3f8dde46	1.1083457

network.9.bias f4 [64]
0	0xbe0e6bc3	-0.13908295
1	0xbc4cf300	-0.012509108
2	0xbe19be00	-0.15013885
3	0x3d27a066	0.040924452
4	0xba641aa7	-0.0008701481
5	0xbe35f19f	-0.17767952
6	0xbde1cbb3	-0.11025181
7	0xbe1769d3	-0.14786462
8	0xbdd99001	-0.1062317
9	0xbe1b69ae	-0.15177032
10	0xbcd86239	-0.026414024
11	0xbdb38556	-0.08765666
12	0x3c8cb968	0.017178252
13	0xbca5f39c	-0.020257764
14	0xbe07736a	-0.1322762
15	0xbe1960fa	-0.149784
16	0xbd370ea1	-0.044691686
17	0xbde1aad2	-0.110189095
18	0xbd188e26	-0.03724494
19	0xbcd20475	-0.02563689
20	0xbdd4b114	-0.103853375
21	0xbdef6f09	-0.116911
22	0xbe0f81a2	-0.14014295
23	0xbd69af8d	-0.057052184
24	0xbd07ffe8	-0.033203036
25	0xbdec86f3	-0.11549177
26	0xbe280a37	-0.16410147
27	0xbdb2f838	-0.0873875
28	0xbdcd4266	-0.1002243
29	0xbce13608	-0.027491584
30	0xbd9d1c37	-0.07671397
31	0xbe18e31e	-0.14930388
32	0xbdd1997a	-0.102343515
33	0xbdec727e	-0.11545275
34	0x3b47a5b4	0.0030463757
35	0xbd54429b	-0.051821332
36	0xbdbbd1ad	-0.09170852
37	0xbe0eb48a	-0.13936058
38	0xbd6cce80	-0.05781412
39	0xbd55e3b9	-0.052219126
40	0xbda49ad4	-0.080373436
41	0xbdc976f6	-0.09837143
42	0xbd77f776	-0.06053873
43	0xbcd7a5e4	-0.02632422
44	0xbde12429	-0.10993225
45	0xbe38aff9	-0.18035878
46	0xbdc97a06	-0.09837727
47	0xbcc0bf97	-0.023528857
48	0xbe118210	-0.14209771
49	0x3a5b4247	0.0008364063
50	0xbc5c7fb9	-0.013458186
51	0x3d22fc67	0.03979149
52	0xbd44d099	-0.048050497
53	0x3c05cff0	0.008167252
54	0xbe2264e8	-0.15858805
55	0x3c9d426b	0.01919671
56	0xbdb73c1e	-0.08947013
57	0xbdc5f6fb	-0.096662484
58	0xbdd730bb	-0.105073415
59	0xbe1b5a83	-0.15171246
60	0xbdba9f89	-0.0911246
61	0xbc1a5d99	-0.0094217295
62	0xbe11d292	-0.14240482
63	0xbdb42889	-0.08796794

network.9.running_mean f4 [64]
0	0x3ed064f1	0.40702012
1	0xbd2a4363	-0.04156817
2	0x3ec7e279	0.39039972
3	0x3f061412	0.52374375
4	0xbd4cb2f5	-0.049975354
5	0x3eed4bae	0.46346802
6	0x3f23172f	0.6370725
7	0xbb307e11	-0.002693061
8	0x3e96fb6d	0.29488698
9	0x3edba684	0.4290048
10	0x3e8e74d8	0.2782352
11	0x3e97b1b2	0.29627758
12	0xbd891076	-0.06692593
13	0x3c6ec945	0.014574354
14	0x3e0bd043	0.13653664
15	0x3e08b063	0.13348536
16	0xbbb3fef7	-0.0054930407
17	0xbcd7b86d	-0.026333058
18	0x3db10e33	0.086452864
19	0x3e488426	0.1958166
20	0x3dce2388	0.10065371
21	0x3ec09276	0.3761174
22	0x3f382afa	0.7194058
23	0x3d86b908	0.06578261
24	0x3cdade17	0.026717229
25	0x3edf8794	0.43658125
26	0x3f3e7d1b	0.74409646
27	0x3e90cd3d	0.28281584
28	0xbe98c0c6	-0.29834574
29	0x3f054014	0.520509
30	0x3f176173	0.5913307
31	0x3d25a362	0.040439017
32	0x3e6b6fdc	0.2299189
33	0x3f03cdc4	0.5148585
34	0xbe0a83cd	-0.1352684
35	0xbcbaccaa	-0.02280267
36	0xbe3c0dfa	-0.18364707
37	0x3ed8c58e	0.42338222
38	0xbe82d995	-0.25556627
39	0x3ece1dde	0.40257162
40	0x3ee12a13	0.43977413
41	0xbcf6d157	-0.030129118
42	0x3e146992	0.14493397
43	0xbdcacedf	-0.09902739
44	0x3e4b62d8	0.19861925
45	0x3d7cbc22	0.061702855
46	0x3e4fd240	0.20295048
47	0xbd35b100	-0.044358253
48	0x3f33c4bc	0.7022207
49	0xbef92d26	-0.48667258
50	0x3e627d71	0.22118165
51	0xbd8680fb	-0.0656757
52	0x3e6fbd7d	0.23412128
53	0xbd63fb0a	-0.05565933
54	0x3e0bf927	0.13669263
55	0x3e0df62e	0.13863441
56	0x3e1cb0cc	0.15301818
57	0x3f0618d3	0.5238163
58	0x3e8aee92	0.2713514
59	0x3d007e2b	0.031370323
60	0x3eb17dd3	0.3466631
61	0xbe86f9a0	-0.26362324
62	0x3e31074b	0.17287938
63	0x3e75552d	0.23958273

network.9.running_var f4 [64]
0	0x3fa04447	1.2520837
1	0x3f8baed8	1.0912733
2	0x3f937b62	1.1522028
3	0x3f8e10f2	1.1098921
4	0x3fb839f7	1.439269
5	0x3fa3e13a	1.2803109
6	0x3fa2b9ef	1.2712992
7	0x3f889e81	1.0673372
8	0x3fa1ebb9	1.2650062
9	0x3f74cb09	0.9562231
10	0x3f9181de	1.1367757
11	0x3f8a28c8	1.0793695
12	0x3f98fc78	1.1952047
13	0x3fa212cd	1.2661988
14	0x3f9d9db1	1.2313749
15	0x3f8850fe	1.0649717
16	0x3fa40667	1.2814454
17	0x3f915cf0	1.1356487
18	0x3fba99f6	1.4578235
19	0x3fba40d3	1.4551033
20	0x3f72cdb5	0.94845134
21	0x3f8a2e3b	1.0795358
22	0x3faf416b	1.3691839
23	0x3fcab9b5	1.5837923
24	0x3f8f86d8	1.1213026
25	0x3fc657e4	1.5495572
26	0x3fb48992	1.4104483
27	0x3f8a11d6	1.0786693
28	0x3f95b96b	1.169721
29	0x3f94cf5f	1.1625785
30	0x3fa76308	1.3077097
31	0x3f99d5cc	1.2018371
32	0x3faade5c	1.3349109
33	0x3fb0a344	1.3799825
34	0x3f8f9c9f	1.1219672
35	0x3f7e9278	0.99442244
36	0x3f617d50	0.88081837
37	0x3f97ec20	1.1868935
38	0x3f62a12b	0.8852717
39	0x3f9fcbf8	1.2484121
40	0x3f9aa59e	1.2081792
41	0x3f878686	1.0587928
42	0x3f606728	0.87657404
43	0x3f8f577a	1.1198571
44	0x3f85cfb5	1.0454012
45	0x3f987fd8	1.1914015
46	0x3fcb0bc4	1.5862966
47	0x3f9d96ed	1.2311684
48	0x3fadd824	1.3581586
49	0x3f8de379	1.1085044
50	0x3fb2684e	1.3938081
51	0x3fb05053	1.3774513
52	0x3fa2ebfe	1.2728269
53	0x3fb98795	1.4494501
54	0x3f97e4b1	1.1866666
55	0x3f97f50c	1.1871657
56	0x3fb30f39	1.398902
57	0x3f9d61d7	1.2295483
58	0x3f75f644	0.96078897
59	0x3f91326d	1.1343514
60	0x3f8a44dc	1.0802264
61	0x3fa206b1	1.2658292
62	0x3fb2b6d4	1.3962045
63	0x3f9492be	1.1607282

network.11.weight f4 [10, 64, 4, 4]
0	0x3b4321c0	0.0029774755
1	0x3ba9f9b3	0.005187237
2	0x3c5b90fd	0.013401267
3	0xbbce8c1b	-0.006303323
4	0x3cc81ecd	0.02442875
5	0xbd770aeb	-0.060313147
6	0x3dcb6fc4	0.09933427
7	0x3dbcae64	0.0921295
8	0xbdaec2a2	-0.08533217
9	0x3c0e1036	0.008670857
10	0x3b91a5f5	0.0044448324
11	0x3b6a2bb6	0.003573162
12	0xbc269bf8	-0.010169022
13	0xbde093d1	-0.10965694
14	0xbdf9513d	-0.12173698
15	0xbd749688	-0.05971387
16	0xbd954b82	-0.072897926
17	0x3c9a47d2	0.018833075
18	0xbc1c0c79	-0.009524458
19	0x3d34e933	0.04416771
20	0xbdafe7c7	-0.0858913
21	0xbe075fec	-0.13220185
22	0xbb15a77e	-0.0022835429
23	0xbcdbdc9a	-0.02683859
24	0xbd6148ac	-0.055000946
25	0xbb9fbccc	-0.0048748013
26	0xbe0d61ce	-0.13806841
27	0xbdf2b863	-0.11851575
28	0xbd1ffa69	-0.03905717
29	0xbe01ec64	-0.12687832
30	0xbd865cde	-0.06560682
31	0x3d1881d0	0.037233174
32	0xbd90f61b	-0.07078191
33	0xbc828bb4	-0.015935756
34	0xba778278	-0.00094417436
35	0x3c5dcdc8	0.013537832
36	0x3d0088f1	0.031380598
37	0xbdcbffc6	-0.09960894
38	0xbdc6f4ee	-0.097146854
39	0xbc133597	-0.008984945
40	0x3d28d538	0.041218966
41	0xbe04ff4f	-0.12988017
42	0xbdfca0a1	-0.12335325
43	0xbd2cbd1a	-0.04217253
44	0x3d19346b	0.037403505
45	0x3c52aa3f	0.012857973
46	0xbe55784e	-0.20846674
47	0x3c4125e4	0.011788819
48	0xbda56c99	-0.08077354
49	0xbd9be0b0	-0.07611215
50	0x3c9000df	0.01757854
51	0x3d39cdaf	0.04536217
52	0xbe329a41	-0.17441656
53	0xbd846e18	-0.06466311
54	0xbe4f3ac0	-0.20237255
55	0xbd8ee164	-0.069765836
56	0xbd4f0f8c	-0.050551936
57	0xbd1d004e	-0.03833037
58	0x3d35100e	0.044204764
59	0x3dc09f4d	0.09405384
60	0xbb15db11	-0.002286617
61	0x3c265cbb	0.010153945
62	0xbcde59be	-0.027142402
63	0xbb304348	-0.0026895572
64	0x3ca1bbbb	0.019742837
65	0xbd957edf	-0.07299589
66	0x3c0b96ce	0.008519841
67	0x3cd52b88	0.026021734
68	0xb933ed90	-0.00017159269
69	0xbbe0a7b8	-0.006855931
70	0xbdde4f81	-0.10855008
71	0x3b3eb1eb	0.0029097747
72	0x3bafe4a0	0.0053678304
73	0xbdc94d26	-0.09829168
74	0xbc054221	-0.008133442
75	0xbc09aef0	-0.008403525
76	0xbd352342	-0.044223078
77	0xbd50baa4	-0.050959244
78	0xbceb0428	-0.028688505
79	0x3c2388af	0.009981318
80	0x3bd678fa	0.0065451832
81	0xbb9185ee	-0.0044410145
82	0xbcbc23b5	-0.022966245
83	0x3cdb48a0	0.026768029
84	0xbc17a8b1	-0.009256528
85	0x3db04b49	0.086081095
86	0xbd00f73a	-0.031485774
87	0x3d8d517f	0.0690031
88	0x3d6efd00	0.05834675
89	0xbd4ce3ce	-0.05002194
90	0xbdd3c2aa	-0.103398636
91	0x3d0e8d4c	0.03480272
92	0x3cda44db	0.026644161
93	0x3c7a865b	0.015290822
94	0xbd68d3e8	-0.056842715
95	0x3d0c8c87	0.034313705
96	0xbd10709d	-0.035263646
97	0xbd7ea2e9	-0.062167082
98	0xbd4bf1d1	-0.04979116
99	0x3d0f9b1e	0.03506004
100	0xbd99eab6	-0.07515471
101	0xbe0492f0	-0.12946677
102	0xbe590b05	-0.2119561
103	0x3d6efd57	0.058347072
104	0xbe45f9fb	-0.19333641
105	0xbcdc5aa1	-0.026898684
106	0xbdb3549b	-0.087563716
107	0xbda829e1	-0.08211113
108	0x3c3c3a50	0.011488512
109	0xbbb76ab0	-0.005597435
110	0x3c5a53df	0.0133256605
111	0x3a5da36c	0.0008454833
112	0xbc32f3f4	-0.010922421
113	0xbd8ca437	-0.06867259
114	0xbc3b9d97	-0.011451147
115	0xbce46ddf	-0.027884422
116	0xbb6a254b	-0.0035727795
117	0x3da941b8	0.08264488
118	0xbda34efe	-0.07974051
119	0xbd3cd2fe	-0.046099655
120	0x3d8d613f	0.06903314
121	0xbdf90d9d	-0.121608
122	0x3e22a4d8	0.15883195
123	0xbc71e371	-0.014763699
124	0xbc18a8b8	-0.009317569
125	0xbdebd0cd	-0.11514435
126	0xbe0fe439	-0.14051904
127	0x3cc36d01	0.023855688
128	0xbbbbd2d5	-0.0057319202
129	0xbdace1c4	-0.08441499
130	0xbce4e6f5	-0.02794216
131	0x3cf0cffa	0.029396046
132	0x3da4b390	0.08042061
133	0x3c3c5a9b	0.011496211
134	0xbd99c5c7	-0.07508426
135	0x3d9a1430	0.07523382
136	0x3d7e4795	0.062079985
137	0x3d9145a7	0.07093363
138	0xbdc48199	-0.09595031
139	0xbd543a48	-0.051813394
140	0xbd23e869	-0.040016565
141	0xbc8b77e1	-0.017024936
142	0xbbfe9d64	-0.0077702273
143	0x3cefca42	0.029271249
144	0x3d124560	0.035710692
145	0xbdcf4b18	-0.10121745
146	0xbcefe431	-0.029283615
147	0xbc720f1f	-0.014774113
148	0xbd6be235	-0.057588775
149	0x3d177f4c	0.036986634
150	0xbdee3c23	-0.11632564
151	0xbb8a0367	-0.0042118314
152	0x3d94aeac	0.072598785
153	0xbcf5a191	-0.029984267
154	0x3d0b5e27	0.034025338
155	0xbd3c6d14	-0.046002463
156	0xbc021e48	-0.00794179
157	0x3c28bed4	0.010299403
158	0xbd9b431a	-0.07581158
159	0xbd3037b0	-0.043021858
160	0xbd43c170	-0.0477919
161	0xbda60c5d	-0.08107827
162	0xbd2c0b02	-0.042002685
163	0x3d49e7f3	0.04929347
164	0xbe248aa6	-0.16068515
165	0xbd4466d8	-0.047949642
166	0xbe46aef2	-0.19402674
167	0xbab95b09	-0.001414151
168	0xbd042a15	-0.032266695
169	0xbe0d733b	-0.13813488
170	0xbe08190f	-0.13290809
171	0xbd6fd366	-0.058551215
172	0xbd18f1b0	-0.037339866
173	0xbc7db141	-0.015484155
174	0x3c7bab5c	0.0153606795
175	0xb958277f	-0.00020614079
176	0x3c601b9f	0.01367846
177	0xbd384bb5	-0.044994075
178	0xbd86d652	-0.06583847
179	0x3c473113	0.012157696
180	0x3d250c4e	0.040294938
181	0xbe2f9bb4	-0.1714924
182	0xbdfbe1ad	-0.122989036
183	0x3d4499d8	0.04799828
184	0x3bbd8fd5	0.0057849684
185	0xbdb420e6	-0.087953374
186	0xbdc46d19	-0.09591121
187	0xbc41b6cf	-0.01182337
188	0xbd203c09	-0.039119754
189	0xbd08dd4d	-0.033414174
190	0xbda3d1b5	-0.07998983
191	0xbd7f0970	-0.06226486
192	0xbe05fa3f	-0.13083743
193	0xbced7813	-0.02898792
194	0x3b29e3ba	0.002592309
195	0x3c126eeb	0.008937578
196	0xbdb287d2	-0.08717312
197	0xbe228b54	-0.15873462
198	0xbde208cd	-0.11036835
199	0xbd89489c	-0.06703302
200	0xbde289cd	-0.1106144
201	0xbd8d53ab	-0.06900724
202	0xbd139cf7	-0.036038365
203	0xbd638796	-0.055549227
204	0xbbea475c	-0.00714962
205	0x3d23d542	0.0399983
206	0xbcab6c95	-0.0209258
207	0xbb698fa5	-0.0035638597
208	0xbdc3e268	-0.09564668
209	0xbd4cc694	-0.049994066
210	0x3d3c1eea	0.04592792
211	0xbcbad7d8	-0.022808
212	0xbcd54cfb	-0.026037684
213	0xbe1471e1	-0.14496566
214	0xbde474d9	-0.111550994
215	0xbd20acad	-0.039227176
216	0xbb8eef6f	-0.004362039
217	0xbd00352b	-0.031300705
218	0xbd3602eb	-0.044436377
219	0x3b4596da	0.003014973
220	0x3cb2d18c	0.021828435
221	0xbd86ff72	-0.06591691
222	0xbbfc6e00	-0.0077035427
223	0x3c47e4d9	0.012200558
224	0xbcaffd28	-0.021483019
225	0x3d1a1a06	0.037622474
226	0x3cef634c	0.029222153
227	0x3d3148cb	0.04328231
228	0x3d133597	0.03593978
229	0xbdd9d83b	-0.10636946
230	0x3d1c2656	0.038122497
231	0xbd307a8b	-0.043085616
232	0xbda893c4	-0.08231309
233	0x3ddefd58	0.10888165
234	0xbde1531c	-0.1100218
235	0x3d5f966e	0.05458682
236	0x3cde3992	0.027127061
237	0xbd18865c	-0.03723751
238	0xbd1a7dc0	-0.03771758
239	0xbdb3b3dd	-0.087745406
240	0xbcf0288a	-0.029316206
241	0x3cfc456d	0.030794824
242	0xbd7718e2	-0.060326464
243	0xbc7001e5	-0.014648889
244	0xbd6673c1	-0.056262735
245	0xbdf51c9b	-0.11968347
246	0xbb0dc0f0	-0.0021629892
247	0xbd7c32dc	-0.06157194
248	0xbd85a4c2	-0.06525566
249	0xbcc6b8fa	-0.024258126
250	0xbdf083ca	-0.11743887
251	0x3c3f870e	0.011689914
252	0xbb6effa4	-0.0036468292
253	0xbc574d42	-0.013140978
254	0xbdefdc8e	-0.11711989
255	0x3b1c7f7b	0.0023879695
